________________________________________________________________________________
Layer (type)                        Output Shape                    Param #     
================================================================================
dense (Dense)                       (None, 5)                       170         
________________________________________________________________________________
dense_1 (Dense)                     (None, 20)                      120         
________________________________________________________________________________
dense_2 (Dense)                     (None, 5)                       105         
________________________________________________________________________________
dense_3 (Dense)                     (None, 10)                      60          
________________________________________________________________________________
dense_4 (Dense)                     (None, 5)                       55          
________________________________________________________________________________
dense_5 (Dense)                     (None, 10)                      60          
________________________________________________________________________________
dense_6 (Dense)                     (None, 5)                       55          
________________________________________________________________________________
dense_7 (Dense)                     (None, 10)                      60          
________________________________________________________________________________
dense_8 (Dense)                     (None, 5)                       55          
________________________________________________________________________________
dense_9 (Dense)                     (None, 10)                      60          
________________________________________________________________________________
dense_10 (Dense)                    (None, 5)                       55          
________________________________________________________________________________
dense_11 (Dense)                    (None, 10)                      60          
________________________________________________________________________________
dense_12 (Dense)                    (None, 5)                       55          
________________________________________________________________________________
dense_13 (Dense)                    (None, 1)                       6           
================================================================================
Total params: 976
Trainable params: 976
Non-trainable params: 0
________________________________________________________________________________